…
tion":{"iopub.status.busy":"2023-01-04T11:50:27.903473Z","iopub.execute_input":"2023-01-04T11:50:27.903824Z","iopub.status.idle":"2023-01-04T11:50:27.912689Z","shell.execute_reply.started":"2023-01-04T11:50:27.903789Z","shell.execute_reply":"2023-01-04T11:50:27.910960Z"},"trusted":true},"execution_count":13,"outputs":[{"name":"stdout","text":"Model: \"sequential_2\"\n_________________________________________________________________\nLayer (type)                 Output Shape              Param #   \n=================================================================\nsequential (Sequential)      (32, 64, 64, 3)           0         \n_________________________________________________________________\nsequential_1 (Sequential)    (32, 64, 64, 3)           0         \n_________________________________________________________________\nconv2d (Conv2D)              (32, 64, 64, 32)          896       \n_________________________________________________________________\nmax_pooling2d (MaxPooling2D) (32, 32, 32, 32)          0         \n_________________________________________________________________\nconv2d_1 (Conv2D)            (32, 32, 32, 64)          18496     \n_________________________________________________________________\nmax_pooling2d_1 (MaxPooling2 (32, 16, 16, 64)          0         \n_________________________________________________________________\nconv2d_2 (Conv2D)            (32, 16, 16, 64)          36928     \n_________________________________________________________________\nmax_pooling2d_2 (MaxPooling2 (32, 8, 8, 64)            0         \n_________________________________________________________________\nconv2d_3 (Conv2D)            (32, 8, 8, 64)            36928     \n_________________________________________________________________\nmax_pooling2d_3 (MaxPooling2 (32, 4, 4, 64)            0         \n_________________________________________________________________\nconv2d_4 (Conv2D)            (32, 4, 4, 64)            36928     \n_________________________________________________________________\nmax_pooling2d_4 (MaxPooling2 (32, 2, 2, 64)            0         \n_________________________________________________________________\nconv2d_5 (Conv2D)            (32, 2, 2, 64)            36928     \n_________________________________________________________________\nmax_pooling2d_5 (MaxPooling2 (32, 1, 1, 64)            0         \n_________________________________________________________________\nflatten (Flatten)            (32, 64)                  0         \n_________________________________________________________________\ndense (Dense)                (32, 64)                  4160      \n_________________________________________________________________\ndense_1 (Dense)              (32, 10)                  650       \n=================================================================\nTotal params: 171,914\nTrainable params: 171,914\nNon-trainable params: 0\n_________________________________________________________________\n","output_type":"stream"}]},{"cell_type":"code","source":"model.compile(\n    optimizer='adam',\n    loss=tf.keras.losses.SparseCategoricalCrossentropy(from_logits=False),\n    metri
…
